yolo-voc
layer     filters    size              input                output
   0 conv     32  3 x 3 / 1   416 x 416 x   3   ->   416 x 416 x  32 0.299 BF
   1 max          2 x 2 / 2   416 x 416 x  32   ->   208 x 208 x  32 0.006 BF
   2 conv     64  3 x 3 / 1   208 x 208 x  32   ->   208 x 208 x  64 1.595 BF
   3 max          2 x 2 / 2   208 x 208 x  64   ->   104 x 104 x  64 0.003 BF
   4 conv    128  3 x 3 / 1   104 x 104 x  64   ->   104 x 104 x 128 1.595 BF
   5 conv     64  1 x 1 / 1   104 x 104 x 128   ->   104 x 104 x  64 0.177 BF
   6 conv    128  3 x 3 / 1   104 x 104 x  64   ->   104 x 104 x 128 1.595 BF
   7 max          2 x 2 / 2   104 x 104 x 128   ->    52 x  52 x 128 0.001 BF
   8 conv    256  3 x 3 / 1    52 x  52 x 128   ->    52 x  52 x 256 1.595 BF
   9 conv    128  1 x 1 / 1    52 x  52 x 256   ->    52 x  52 x 128 0.177 BF
  10 conv    256  3 x 3 / 1    52 x  52 x 128   ->    52 x  52 x 256 1.595 BF
  11 max          2 x 2 / 2    52 x  52 x 256   ->    26 x  26 x 256 0.001 BF
  12 conv    512  3 x 3 / 1    26 x  26 x 256   ->    26 x  26 x 512 1.595 BF
  13 conv    256  1 x 1 / 1    26 x  26 x 512   ->    26 x  26 x 256 0.177 BF
  14 conv    512  3 x 3 / 1    26 x  26 x 256   ->    26 x  26 x 512 1.595 BF
  15 conv    256  1 x 1 / 1    26 x  26 x 512   ->    26 x  26 x 256 0.177 BF
  16 conv    512  3 x 3 / 1    26 x  26 x 256   ->    26 x  26 x 512 1.595 BF
  17 max          2 x 2 / 2    26 x  26 x 512   ->    13 x  13 x 512 0.000 BF
  18 conv   1024  3 x 3 / 1    13 x  13 x 512   ->    13 x  13 x1024 1.595 BF
  19 conv    512  1 x 1 / 1    13 x  13 x1024   ->    13 x  13 x 512 0.177 BF
  20 conv   1024  3 x 3 / 1    13 x  13 x 512   ->    13 x  13 x1024 1.595 BF
  21 conv    512  1 x 1 / 1    13 x  13 x1024   ->    13 x  13 x 512 0.177 BF
  22 conv   1024  3 x 3 / 1    13 x  13 x 512   ->    13 x  13 x1024 1.595 BF
  23 conv   1024  3 x 3 / 1    13 x  13 x1024   ->    13 x  13 x1024 3.190 BF
  24 conv   1024  3 x 3 / 1    13 x  13 x1024   ->    13 x  13 x1024 3.190 BF
  25 route  16
  26 conv     64  1 x 1 / 1    26 x  26 x 512   ->    26 x  26 x  64 0.044 BF
  27 reorg              / 2    26 x  26 x  64   ->    13 x  13 x 256
  28 route  27 24
  29 conv   1024  3 x 3 / 1    13 x  13 x1280   ->    13 x  13 x1024 3.987 BF
  30 conv     40  1 x 1 / 1    13 x  13 x1024   ->    13 x  13 x  40 0.014 BF
  31 detection
mask_scale: Using default '1.000000'
Total BFLOPS 29.342 
 Allocate additional workspace_size = 49.84 MB 
Loading weights from ./darknet19_448.conv.23...
 seen 32 
Done!
Learning Rate: 0.001, Momentum: 0.9, Decay: 0.0005
Resizing
608 x 608 
 try to allocate additional workspace_size = 106.46 MB 
 CUDA allocate done! 
Loaded: 0.000056 seconds
…
